…
Analyze this chess position and suggest the best move.
Current position (FEN): rnb2bnr/p2kqppp/3p4/1pp1p3/4P1P1/PP3P2/2PP1KBP/RNBQ2NR b - - 2 7
Legal moves: Nh6, Nf6, Bb7, Ba6, Nc6, Na6, Qe8, Qd8, Qf6, Qe6, Qg5, Qh4+, Ke8, Kd8, Kc7, Ke6, Kc6, h6, g6, f6, a6, d5, c4, b4, h5, g5, f5, a5
Please respond with your move in SAN format. Answer:
Prepared dataset
Prepare Training...
> /Users/chloe/Desktop/deepchess/chess_gym.py(218)<module>()
-> print("Training...")
OptimizedModule(
  (_orig_mod): PeftModelForCausalLM(
    (base_model): LoraModel(
      (model): Qwen2ForCausalLM(
        (model): Qwen2Model(
          (embed_tokens): Embedding(151936, 896)
          (layers): ModuleList(
            (0-23): 24 x Qwen2DecoderLayer(
              (self_attn): Qwen2Attention(
                (q_proj): lora.Linear(
                  (base_layer): Linear(in_features=896, out_features=896, bias=True)
                  (lora_dropout): ModuleDict(
                    (default): Dropout(p=0.05, inplace=False)
                  )
                  (lora_A): ModuleDict(
                    (default): Linear(in_features=896, out_features=16, bias=False)
                  )
                  (lora_B): ModuleDict(
                    (default): Linear(in_features=16, out_features=896, bias=False)
                  )
                  (lora_embedding_A): ParameterDict()
                  (lora_embedding_B): ParameterDict()
                  (lora_magnitude_vector): ModuleDict()
                )
                (k_proj): Linear(in_features=896, out_features=128, bias=True)
                (v_proj): lora.Linear(
                  (base_layer): Linear(in_features=896, out_features=128, bias=True)
                  (lora_dropout): ModuleDict(
                    (default): Dropout(p=0.05, inplace=False)
                  )
                  (lora_A): ModuleDict(
                    (default): Linear(in_features=896, out_features=16, bias=False)
                  )
                  (lora_B): ModuleDict(
                    (default): Linear(in_features=16, out_features=128, bias=False)
                  )
                  (lora_embedding_A): ParameterDict()
                  (lora_embedding_B): ParameterDict()
                  (lora_magnitude_vector): ModuleDict()
                )
                (o_proj): Linear(in_features=896, out_features=896, bias=False)
              )
              (mlp): Qwen2MLP(
                (gate_proj): Linear(in_features=896, out_features=4864, bias=False)
                (up_proj): Linear(in_features=896, out_features=4864, bias=False)
                (down_proj): Linear(in_features=4864, out_features=896, bias=False)
                (act_fn): SiLU()
              )
              (input_layernorm): Qwen2RMSNorm((896,), eps=1e-06)
              (post_attention_layernorm): Qwen2RMSNorm((896,), eps=1e-06)
            )
          )
          (norm): Qwen2RMSNorm((896,), eps=1e-06)
          (rotary_emb): Qwen2RotaryEmbedding()
        )
        (lm_head): Linear(in_features=896, out_features=151936, bias=False)
      )
    )
  )
)
device(type='mps', index=0)
*** AttributeError: 'Qwen2ForCausalLM' object has no attribute 'precision'
Traceback (most recent call last):
  File "/Users/chloe/Desktop/deepchess/chess_gym.py", line 218, in <module>
    print("Training...")
  File "/Users/chloe/Desktop/deepchess/chess_gym.py", line 218, in <module>
    print("Training...")
…
